src/jsMain/resources/dce.onnx (onnx, 47228 bytes, 28 tensors)

e_conv1.depth_conv.weight f4 [3, 1, 3, 3]
000000 12 bb f5 bd 5d c1 1d bc 68 c9 66 be 78 89 bf bc
       -0.119985715 -0.009628621 -0.22537768 -0.02338098
000010 7e 97 3d be 0e 26 8d be 3f 92 5a be 91 28 44 bc
       -0.18514821 -0.27568096 -0.21344851 -0.011972562
000020 c0 9c 3a 3d 5d f1 6c be 96 5f 8a 3e 38 0a 0e 3e
       0.045559645 -0.23138948 0.2702605 0.13871086
000030 da b5 21 be 24 c5 0f be af 9e 6b be 23 72 39 be
       -0.15792027 -0.14040047 -0.23009752 -0.18109946
000040 83 a7 26 be 73 0d c7 bd 11 68 7c 3c d3 b1 2b 3e
       -0.16274838 -0.09719362 0.015405671 0.16767053
000050 83 5b 90 3e d5 e2 ac 3d 4a 4b 8e be 08 b5 90 bd
       0.28194818 0.08441702 -0.27791816 -0.07065779
000060 8e a5 ab bd 3e cf c2 3d 9a ff 6e 3e
       -0.083811864 0.095121846 0.23339692

e_conv1.depth_conv.bias f4 [3]
000000 e3 4d a8 3e 90 07 95 be bf 84 a6 3e
       0.32871923 -0.29107332 0.32523152

e_conv1.point_conv.weight f4 [32, 3, 1, 1]
000000 38 59 f8 ba 64 9a 12 bb d2 2c 28 3c e6 71 00 80
       -0.0018947488 -0.0022369856 0.010264592 -4.0859e-41
000010 83 f8 00 00 c8 11 01 80 13 6f 65 22 49 0a 6e 9d
       8.9149e-41 -9.8214e-41 3.109409e-18 -3.1504355e-21
000020 cc b5 b0 b8 58 c4 bd 3e ce 06 80 3e 60 98 ac 3e
       -8.426196e-05 0.3706386 0.25005192 0.33710003
000030 46 1c a5 bd a5 c1 27 3e 33 b2 f1 3e 4e 7b 48 bd
       -0.08062033 0.16382463 0.47206268 -0.048945718
000040 18 64 5b bd ff 00 b2 3e 23 3c d7 3d 06 9b e5 be
       -0.053562254 0.34766385 0.10509517 -0.44844836
000050 25 73 dd 3d 2d 6e 0e bf 3b 47 f8 be 1b 1e a1 be
       0.10812978 -0.55636865 -0.48491845 -0.3146828
000060 a1 5e 4b 3e e7 96 4d 3d d1 19 0a bd 78 a3 4c 37
       0.19860317 0.05019274 -0.033716027 1.2197408e-05
000070 47 79 13 bc f3 48 c2 32 c6 9e 75 be 5d 36 00 bf
       -0.009001083 2.2617746e-08 -0.23986349 -0.5008295
000080 d2 6b f8 3e b3 6a fa bb 54 20 c2 be 49 46 83 be
       0.4851976 -0.007642114 -0.3791529 -0.2563956
000090 d7 ce b5 bc 31 2f 47 3c ad 1b 6f 3e 9a 99 00 80
       -0.022193355 0.012157247 0.23350401 -5.5102e-41
0000a0 74 ef 64 ac 00 7f 4a b6 38 2e 37 bd 42 0c f1 3e
       -3.2533672e-12 -3.017427e-06 -0.044721812 0.47079664
0000b0 e6 00 b7 bc d4 59 00 00 32 22 9f 34 06 54 07 29
       -0.022339296 3.2224e-41 2.9640938e-07 3.00489e-14
0000c0 6d 11 b0 be b8 51 3b be af dd dc be f8 25 00 80
       -0.34388295 -0.18292892 -0.4313788 -1.362e-41
0000d0 f8 29 00 00 fb c2 8d a0 3e bc ac 3e ca 71 63 3c
       1.5056e-41 -2.4015356e-19 0.33737367 0.01388211
0000e0 66 e2 34 be b3 fb 00 80 36 95 86 38 a8 12 cf b7
       -0.17664489 -9.0293e-41 6.4174106e-05 -2.468501e-05
0000f0 bd aa ce be 55 54 86 3d 8f de be 3c e3 0e bf bd
       -0.40364638 0.06559054 0.023299484 -0.09329011
000100 2c 8c cb bc 57 6d e0 3e 49 57 01 00 34 55 00 80
       -0.024847113 0.4383342 1.23148e-40 -3.0565e-41
000110 91 4b 93 a2 1e 3a 48 be 75 fc 8a bd 06 24 22 be
       -3.992444e-18 -0.1955342 -0.067864336 -0.15834054
000120 00 84 72 be 36 02 86 be f1 0a d4 bd dc 5a f8 3e
       -0.23683167 -0.26173562 -0.103536494 0.4850682
000130 f7 23 3d bf f9 37 07 3e 8f f1 c2 3c 31 9c 70 3b
       -0.73883003 0.13204946 0.023796825 0.003671419
000140 fb 85 ba 3d f9 fc ca be a2 b3 eb 3e 7a 8b c2 3e
       0.09107586 -0.39646128 0.46035486 0.37997037
000150 26 c7 85 3d 4c 0f a1 3e 64 ce 11 be c7 d8 00 00
       0.06532125 0.31456983 -0.14238888 7.7765e-41
000160 f7 1e 00 00 83 a4 00 80 57 1f a1 be 18 8d 84 be
       1.1108e-41 -5.9016e-41 -0.31469223 -0.25888896
000170 4f a8 ba bc cb 33 9e be 15 65 7c 3d 0d c8 dd bd
       -0.022785334 -0.3089889 0.061619837 -0.10829172

e_conv1.point_conv.bias f4 [32]
000000 b4 e1 97 bd 3b 67 65 b1 21 89 00 00 4d 33 23 3e
       -0.07416096 -3.3382566e-09 4.9193e-41 0.15937538
000010 a5 15 fc be 5c 62 e7 bd 21 63 0c bf 00 b8 27 3e
       -0.49235263 -0.112980574 -0.5483876 0.16378784
000020 02 bd a8 3c a3 07 90 bc dc e0 4d 3e 7a ca 10 3f
       0.020597938 -0.017581766 0.20105308 0.56558955
000030 2a 88 31 3e c6 d6 59 b6 b7 32 00 3f 76 33 a0 ad
       0.17337099 -3.2460534e-06 0.50077385 -1.8212747e-11
000040 06 51 9e bd da 94 bf ae 98 57 eb 3e e2 5a 00 80
       -0.07730298 -8.712116e-11 0.45965266 -3.2603e-41
000050 0f 5f 0d 3e e0 2c 97 3e 8d e2 00 00 47 2c d8 bd
       0.13805793 0.29526424 8.1271e-41 -0.1055532
000060 53 96 65 3e 7c cc 7b be 43 c6 f1 bd 12 5a d3 3e
       0.22420625 -0.24589723 -0.118053935 0.41279656
000070 20 a4 a9 3e ed 2f c7 b9 af 86 e0 be 11 58 c0 bd
       0.3313303 -0.00037991945 -0.43852755 -0.09391797

e_conv2.depth_conv.weight f4 [32, 1, 3, 3]
000000 90 11 00 80 7e c6 00 00 f9 a4 00 00 f9 59 6c 25
       -6.3e-42 7.1206e-41 5.9181e-41 2.0500221e-16
000010 71 2f 9f 96 62 3d ab 92 42 1b 84 2a 84 1d 00 80
       -2.5717775e-25 -1.0806749e-27 2.3466824e-13 -1.0588e-41
000020 e7 77 61 9f 11 4e 3d 2a 49 6c 00 00 39 23 00 80
       -4.7744784e-20 1.6813657e-13 3.8845e-41 -1.2636e-41
000030 c3 80 00 00 99 14 00 80 77 92 00 00 af 51 00 00
       4.6191e-41 -7.389e-42 5.2542e-41 2.9303e-41
000040 aa 48 e0 11 f4 5d 06 a2 41 60 01 80 c8 40 00 00
       3.5385751e-28 -1.8210125e-18 -1.26365e-40 2.3239e-41
000050 93 63 00 00 46 df 00 00 da 22 00 80 2d 62 00 00
       3.572e-41 8.0095e-41 -1.2502e-41 3.5219e-41
000060 f1 38 00 00 c4 19 cf a2 a4 29 01 00 9e 45 fd 3d
       2.0427e-41 -5.6134743e-18 1.06773e-40 0.12366794
000070 ed 20 40 3e f7 16 40 be fe 1c 8d 3e 9e be 4a 3d
       0.1876256 -0.1875876 0.27561182 0.049498193
000080 5d 78 80 bd 46 23 76 3e 69 a5 e6 bd 9e 4e 7a 3e
       -0.062729575 0.24036893 -0.11262018 0.24444053
000090 95 e4 b6 a5 c1 86 9b 23 66 ef 16 aa ed 73 5a 9d
       -3.172686e-16 1.6862204e-17 -1.3405734e-13 -2.8911992e-21
0000a0 0c 75 19 2f 08 a6 75 21 8e ac ea ae 69 6a be a6
       1.3956852e-10 8.322897e-19 -1.067174e-10 -1.3212741e-15
0000b0 7e 68 c1 2a 77 1e 47 3e cf e2 7c 3e d2 e9 00 bd
       3.4356193e-13 0.19445215 0.24695896 -0.03147299
0000c0 29 15 84 3b 3e 75 76 3e 46 f1 60 be 8b c4 d3 3e
       0.004030843 0.24068162 -0.21967039 0.41360888
0000d0 d1 26 4a 3e d3 7c 24 be ef 49 a5 bc a3 85 51 bc
       0.1974137 -0.16063242 -0.020176856 -0.012788209
0000e0 4c 12 48 bc 25 c1 e4 bb 88 18 8e bc 8d 6f a9 3c
       -0.012211394 -0.0069810324 -0.017345682 0.020683074
0000f0 02 1f 1a bd 2a e4 28 3b f1 2f 83 3c a2 ca 7b be
       -0.037627228 0.0025770762 0.016014071 -0.24589017
000100 a6 54 30 bd 32 35 1a 3e 48 d1 1c 3e bd 21 e4 3e
       -0.043049477 0.15059355 0.1531421 0.4455699
000110 c3 9f e8 3e 0e 84 7a 3d 49 de 32 3e 5d 0e e0 be
       0.4543439 0.061161093 0.17467608 -0.43760958
000120 f1 6c 54 be 95 4f af bd 06 13 80 bd d4 78 57 be
       -0.20744683 -0.08560101 -0.062536284 -0.21042186
000130 99 fe 83 bd 28 71 c3 bc ef 2a 8a be 3e 77 15 be
       -0.06445045 -0.023857668 -0.2698588 -0.14596269
000140 e4 16 c0 bd 15 56 1f a2 d0 3c 00 80 19 1c 00 00
       -0.09379366 -2.159409e-18 -2.1815e-41 1.008e-41
000150 3e 21 00 00 81 bd 00 00 92 36 00 00 bb 33 00 80
       1.1925e-41 6.7981e-41 1.9576e-41 -1.8557e-41
000160 30 d2 d5 90 66 b9 00 80 9f 25 68 be f7 16 96 be
       -8.433753e-29 -6.6508e-41 -0.22670601 -0.29314396
000170 37 9b cd be 4a 9b 95 be fe 08 a3 bd 00 4e c0 be
       -0.40157482 -0.2922004 -0.079606995 -0.3755951
000180 59 90 30 be 78 d1 c6 be 54 e0 01 bd 02 8f 72 3e
       -0.17242564 -0.38831687 -0.031708077 0.23687366
000190 aa bf 9f bd a5 c6 be be f0 bf dd 3c ec de a8 3b
       -0.07800229 -0.3726093 0.027069062 0.0051535275
0001a0 61 fb 68 be 2f 71 2b 3e 92 69 6c bd 73 2d 50 3e
       -0.22752143 0.16742395 -0.057717867 0.20329838
0001b0 0c 7f c3 bd 48 a6 50 be 89 4b c3 3d d9 87 ec 3d
       -0.09545717 -0.20375931 0.095358916 0.115493484
0001c0 ab eb 7e bd 81 76 92 be 4a 6a 22 bb 24 5b 04 be
       -0.06223647 -0.28606036 -0.0024782591 -0.12925392
0001d0 a5 d9 d7 3c 05 e0 2a a9 41 1d c5 86 e8 e2 00 80
       0.026348898 -3.794189e-14 -7.414615e-35 -8.1399e-41
0001e0 a2 89 00 80 07 6b 00 00 9e a9 08 a0 7e a2 00 00
       -4.9373e-41 3.8394e-41 -1.157577e-19 5.8291e-41
0001f0 f3 e6 00 80 4d b5 00 00 76 21 b2 3d f2 94 b2 3c
       -8.2849e-41 6.5038e-41 0.086977884 0.021799538
000200 fc 3a a0 be c5 d3 6f 3e ce d0 cb be f6 9b 8d 3c
       -0.31295002 0.23420627 -0.39807743 0.017286282
000210 99 a4 4b 3e 00 c1 3c be ad 67 d3 be 10 4f 00 80
       0.19887008 -0.18432999 -0.41290036 -2.8362e-41
000220 6c ff b3 a2 5d 4b 00 80 cd a3 00 80 aa d6 bc 24
       -4.8788486e-18 -2.7035e-41 -5.876e-41 8.189566e-17
000230 94 79 1b 95 9e 10 00 80 c3 e5 66 90 18 f7 a2 a7
       -3.139791e-26 -5.961e-42 -4.5536504e-29 -4.523193e-15
000240 36 ae dc bb a7 5f 21 bc ad 6e 38 3b a6 1e 08 3d
       -0.0067346347 -0.009849465 0.002814214 0.033232354
000250 7e 24 02 3d 2d be 56 3d 9f 28 18 bd c2 cf 24 bd
       0.031773083 0.05242746 -0.037148114 -0.040237196
000260 ef cf b6 bc 3b 8f 00 80 ee f6 00 80 9c 89 01 80
       -0.022315947 -5.1381e-41 -8.8582e-41 -1.412e-40
000270 90 86 c2 a2 10 bc 00 00 ea ee 00 80 c7 59 00 80
       -5.272628e-18 6.7464e-41 -8.5706e-41 -3.2206e-41
000280 be 43 00 00 e7 3b 00 00 93 13 76 be d8 cf 08 3e
       2.4301e-41 2.1489e-41 -0.24030904 0.13360536
000290 16 82 ab be 26 3c 8d be 43 96 6a bd 16 00 97 be
       -0.33497685 -0.27584952 -0.057272207 -0.29492253
0002a0 be a1 8c be b0 14 6c be 57 4f 43 3e ea 55 55 27
       -0.2746715 -0.23054767 0.19073234 2.9606262e-15
0002b0 5d 1f 00 00 e8 f6 00 00 6e 28 aa 22 6b 9e 15 25
       1.1251e-41 8.8573e-41 4.61214e-18 1.2977364e-16
0002c0 f7 fd 00 00 b5 0d 00 00 af 45 00 00 6f 2c 34 22
       9.1105e-41 4.917e-42 2.4998e-41 2.4418072e-18
0002d0 b0 07 e4 bd ce 74 36 be 97 d7 80 be 9e 1e 33 3e
       -0.11134279 -0.17817995 -0.25164482 0.17492148
0002e0 dc 19 13 bd e9 e5 33 be bf 2c a9 3d 9f ae 44 bc
       -0.035913333 -0.17568173 0.08260488 -0.012004524
0002f0 07 96 1f be 45 4c 31 3d ae 83 8c 3e 51 67 e3 bd
       -0.15584575 0.043285627 0.27444214 -0.111036904
000300 71 60 ef 3d 84 33 f1 bd a4 a8 c0 bd 91 82 5d bd
       0.116883166 -0.11777404 -0.09407166 -0.054079596
000310 23 82 ae be 31 78 85 3e 95 79 2d 96 c3 9d 00 00
       -0.3408366 0.2606826 -1.4013193e-25 5.6594e-41
000320 5e 44 00 00 37 0c c4 92 d5 83 00 00 eb 7a 00 00
       2.4526e-41 -1.237235e-27 4.7292e-41 4.4095e-41
000330 b6 2b 89 21 14 01 00 00 c5 f6 00 00 e2 24 55 3b
       9.295051e-19 3.87e-43 8.8524e-41 0.0032523205
000340 da 12 37 bd 43 43 83 bd 97 9c 9c 3d f1 35 da bb
       -0.044695713 -0.064093135 0.07647055 -0.0066592623
000350 7a 9d ce bd 93 d2 62 3d 51 9f 62 3c 1a a0 02 bc
       -0.1008863 0.0553766 0.013831929 -0.0079727415
000360 6f c5 a1 3e 77 33 b7 3e 4a b3 0f bc f8 01 74 bd
       0.31595942 0.35781452 -0.008770773 -0.05957219
000370 e9 78 98 3e a3 bb 9b 3e 1e 19 65 be 90 9f 8e be
       0.29779747 0.30416593 -0.22372863 -0.27856112
000380 6e b5 dd 3d 9c db 61 3c 76 31 44 be bc 58 8f bd
       0.108256206 0.013785269 -0.19159493 -0.069993466
000390 0e 66 a0 3e 97 56 cc bc 44 df 61 be 39 f7 f3 3e
       0.31327862 -0.024943633 -0.22057825 0.47649553
0003a0 87 0b 3e be 02 a1 a3 3d 87 86 87 a5 89 c1 00 80
       -0.18559085 0.07989694 -2.3509926e-16 -6.9427e-41
0003b0 8a d8 ef 12 44 aa 0a 26 35 55 00 00 7b 2f b0 a9
       1.51364015e-27 4.810912e-16 3.0567e-41 -7.8242066e-14
0003c0 6c b3 00 00 0e f3 40 8e 4e 06 01 00 15 6a ed 3d
       6.4364e-41 -2.3782854e-30 9.4097e-41 0.11592499
0003d0 cf b1 e4 3d d9 c6 f3 3e f3 a1 b2 3d 0d 1a c0 be
       0.11166727 0.47612646 0.087222956 -0.37519875
0003e0 95 33 4d bd 87 a6 7e be 00 d3 1f 3d f5 39 da 3c
       -0.05009802 -0.24868213 0.039019585 0.026638964
0003f0 ea 54 81 be 8b ef ac be dc 5f cb bd 7f 24 63 be
       -0.25260097 -0.33776507 -0.09930393 -0.22181891

e_conv2.depth_conv.bias f4 [32]
000000 84 58 9f 3e ac cb 89 3e a7 ff 1c be af c5 89 bd
       0.3112222 0.26913202 -0.15331899 -0.06727158
000010 72 2b e4 3d d0 36 0b be d4 e5 92 3e 24 ff 8d bd
       0.11141099 -0.13595128 0.2869097 -0.0693343
000020 a1 92 a6 be 9b 4f ed 3d 3c e8 9f 3e f0 ff 8f 3e
       -0.32533744 0.11587449 0.31231868 0.28124952
000030 61 52 73 bd c2 17 18 3d fd 01 11 be 15 e3 82 3e
       -0.059404735 0.037132032 -0.14160915 0.25563875
000040 66 ca 21 3e b6 a8 6c 3d 45 96 73 3e ea d7 21 3e
       0.15799865 0.057778083 0.23787792 0.15805021
000050 81 a3 43 bd 99 be 0e be 88 76 2a be 47 0c c5 bd
       -0.04776335 -0.13939895 -0.16646779 -0.09621482
000060 3f 07 01 3d ae b8 85 be 5b 72 cb 3d b5 36 90 3e
       0.03150105 -0.26117462 0.09933921 0.28166738
000070 c8 90 2b be b9 ea f2 3d 67 96 ae 3d c7 7e 86 bd
       -0.16754448 0.11861176 0.08524781 -0.065671496

e_conv2.point_conv.weight f4 [32, 32, 1, 1]
000000 dc df fd bd 87 ed 8e bd bb 39 00 be b2 5b ed 3c
       -0.123962134 -0.069788985 -0.12522022 0.028974388
000010 33 b0 85 bd 15 e0 87 3d a6 4f 09 3e e3 24 22 be
       -0.06527748 0.06634537 0.1340929 -0.15834384
000020 97 d0 bd bd 7a a1 d2 bc cb ff 59 be 1f 6b 49 be
       -0.09268301 -0.025711764 -0.21288984 -0.1966977
000030 70 57 4f be bb b6 97 bc fb 59 33 3e ae 1b e9 3d
       -0.20248199 -0.01851975 0.17514794 0.113822326
000040 76 09 18 be 6f 98 ae 3d 42 cd 85 3d 03 7a de 3d
       -0.14847359 0.08525168 0.065332904 0.10863116
000050 91 f8 90 bd 23 21 a6 3d 67 06 1e 3c e5 3f 28 be
       -0.0707866 0.08111789 0.009645081 -0.16430624
000060 30 40 80 bd 3d 97 9a bd ed 41 39 3d 16 8a 4a 3e
       -0.06262243 -0.07548378 0.045228887 0.19779238
000070 bc 1f 39 3e fd 72 ff 3b 55 a9 e6 3d 78 9f f8 bd
       0.18078512 0.00779569 0.11262766 -0.12139791
000080 5a 8f 64 bd 1e c8 bf bd 29 32 08 3e 43 4a 16 bd
       -0.055800773 -0.09364341 0.13300385 -0.036691915
000090 04 96 ae 3d 09 fe 1c 3e e4 dd 8b 3d 27 b1 ca 3d
       0.08524707 0.15331282 0.06829432 0.098970704
0000a0 9a d3 05 3e cd b5 03 3e fa 2d 52 be d0 53 ac bc
       0.13069001 0.1286232 -0.20525351 -0.021036059
0000b0 75 71 d3 bd 00 2d 48 bd f8 c2 3f 3d 17 2b 3a 3e
       -0.103243746 -0.04887104 0.046816796 0.181805
0000c0 69 a9 46 3d d1 35 a5 bc fd 85 5b 3e e6 f5 ab bd
       0.048501406 -0.020167263 0.21437831 -0.08396511
0000d0 4c e9 cd bc 96 f5 17 3e 1a d2 e7 3d 4f bf 8c 3d
       -0.025135659 0.14839777 0.113193706 0.06872427
0000e0 bf 41 6c 3d fe 14 f9 3d 82 85 12 bd da 9b 49 3e
       0.057679888 0.12162207 -0.035771854 0.19688359
0000f0 8b 97 ff 3b a3 82 7e bd ea bc 07 be 4f fc aa bd
       0.0078000478 -0.062136304 -0.13255659 -0.08348905
000100 1c 90 89 aa 29 e2 98 2b bd fd 5b 1b 2e 8a f9 a0
       -2.4436085e-13 1.0863022e-12 1.8197243e-22 -4.227368e-19
000110 49 5d 5c 19 29 b7 3c 92 38 57 ad ab 6e 30 94 8d
       1.1392572e-23 -5.95481e-28 -1.2316597e-12 -9.132863e-31
000120 64 48 c8 ab f8 69 51 92 f0 24 08 38 ab e6 4d ad
       -1.4230947e-12 -6.607939e-28 3.2459327e-05 -1.17041194e-11
000130 9f 84 ce 2a f3 38 00 00 26 a2 44 2e ac f4 96 29
       3.6684975e-13 2.043e-41 4.4709257e-11 6.703782e-14
000140 e4 0c 3a 9f 79 87 00 80 3a 37 ed 31 71 c6 fd 95
       -3.9397695e-20 -4.8598e-41 6.9038864e-09 -1.0249897e-25
000150 1c 49 00 00 d4 72 00 00 df f6 0a a4 6e 9e 92 8f
       2.6227e-41 4.1193e-41 -3.0133088e-17 -1.4457736e-29
000160 6d 4a 77 27 48 7f 7a 23 33 39 00 80 39 af 89 ad
       3.4318482e-15 1.357948e-17 -2.0519e-41 -1.5652911e-11
000170 93 bc d4 29 76 c8 a2 8f c0 05 00 80 ad b9 00 00
       9.447404e-14 -1.6051648e-29 -2.063e-42 6.6608e-41
000180 a3 c0 81 b9 02 a6 3b b9 fc 62 20 38 64 16 d8 b5
       -0.00024748323 -0.00017895552 3.823916e-05 -1.6099771e-06
000190 88 ae 1c b7 77 c0 12 35 af b3 5e b9 87 b0 d2 b8
       -9.338961e-06 5.466931e-07 -0.00021238507 -0.00010046461
0001a0 a9 6b a0 39 a5 7b 41 b7 30 b4 10 3a 27 e7 f3 b8
       0.0003059779 -1.1532485e-05 0.0005520014 -0.000116301984
0001b0 30 4c e8 38 e3 66 5c ac a5 80 7a 39 93 01 27 b9
       0.00011076813 -3.1320994e-12 0.00023889782 -0.00015926948
0001c0 c2 c6 3c b8 47 30 18 b3 e3 74 47 39 06 5e 29 b8
       -4.50078e-05 -3.5434166e-08 0.00019021663 -4.0380306e-05
0001d0 87 89 c9 37 d8 66 48 38 c9 80 70 38 2d f6 8d 36
       2.4025108e-05 4.7779497e-05 5.73404e-05 4.230786e-06
0001e0 77 b1 4f b9 7d b6 0c 39 80 ef b3 b6 58 bc 7f b9
       -0.00019807169 0.00013419423 -5.362497e-06 -0.00024388859
0001f0 79 5b ae 39 14 02 44 b7 f5 d9 f8 b5 ea eb 59 34
       0.0003325602 -1.1682994e-05 -1.8540874e-06 2.0295525e-07
000200 9b e6 99 3d d8 0e 25 be 63 6a c0 bd 58 f4 98 3d
       0.07514688 -0.16118944 -0.09395292 0.0746848
000210 98 b7 d4 bd b6 ec 0a bd 14 79 22 be 18 2c 75 3d
       -0.1038658 -0.03391715 -0.158665 0.059856504
000220 5a c4 33 be 63 39 12 bd a1 ed e3 bd 71 11 9e 3a
       -0.17555371 -0.03569926 -0.111293085 0.0012059641
000230 ce d1 ec 3c ee 92 67 3d 93 a6 b8 3d 6e ff 01 be
       0.028908636 0.056536607 0.090161465 -0.12695095
000240 04 33 ae 3d 43 d0 e1 bd a8 18 96 bd 01 7a 71 bd
       0.08505824 -0.11026051 -0.073289216 -0.058954243
000250 5a 11 8e bd b5 08 4a bc 78 68 19 3e 68 8c af ba
       -0.06936903 -0.0123311775 0.14981258 -0.0013393285
000260 bf 3b c9 3b ca 7a 39 be 16 57 04 3e af 86 b6 3d
       0.0061411555 -0.18113247 0.12923846 0.089124076
000270 51 0a 00 be 6a 33 b8 bd 84 c6 32 3e ef ed 11 be
       -0.12503935 -0.089941815 0.1745854 -0.1425092
000280 86 a7 f3 a5 7c 8b 4e 24 59 38 42 25 74 25 25 23
       -4.22673e-16 4.4787277e-17 1.6845909e-16 8.952599e-18
000290 b6 a7 93 23 93 df 49 a4 83 f6 d9 25 e6 b7 0e a5
       1.60088e-17 -4.3774302e-17 3.7810542e-16 -1.2378844e-16
0002a0 1b 90 0e a5 0e d1 3b 25 ae af 07 31 84 68 cd a5
       -1.2365362e-16 1.6290495e-16 1.9744948e-09 -3.5632654e-16
0002b0 7e 62 ec a4 8b 79 4c 24 1b db 70 25 d6 d3 a7 25
       -1.0251554e-16 4.43384e-17 2.0890918e-16 2.9113428e-16
0002c0 bd 0e 8f 25 df eb 92 24 d8 8c 96 25 66 be 82 25
       2.4816533e-16 6.371699e-17 2.6116292e-16 2.2680424e-16
0002d0 43 4c 87 a3 e3 e7 9a 25 2f 47 92 25 1e f3 41 25
       -1.4669027e-17 2.6871874e-16 2.5375199e-16 1.6822453e-16
0002e0 d7 31 6e 25 db c9 0c a5 0f cb c1 a4 ab 41 d5 a5
       2.0660096e-16 -1.2211456e-16 -8.40444e-17 -3.6994108e-16
0002f0 b8 b9 0f a6 93 9b 40 25 08 d5 c0 24 f3 ed 7d 24
       -4.9864787e-16 1.6706056e-16 8.3627616e-17 5.506218e-17
000300 bf e0 0a 3e 51 ac 22 3e 1f c2 34 3d 79 2f c1 bc
       0.13562296 0.15886046 0.04413044 -0.023582207
000310 95 8d 8c bd 25 3b 46 bd a9 7d 60 3d 94 ee 49 bd
       -0.06862942 -0.04839625 0.05480734 -0.04929979
000320 e1 47 f7 bd 2f 02 ad bd 6d a6 83 3d ed 4f db 3d
       -0.12074257 -0.08447682 0.064282276 0.10708604
000330 9e c9 2a bd 99 0f 05 3c fc 92 29 be 97 0a 55 bd
       -0.041696183 0.008121395 -0.16559976 -0.052012052
000340 58 82 81 bd 01 04 63 3d d4 58 09 3c 91 83 9c 3d
       -0.06323689 0.05542374 0.008382995 0.07642282
000350 ef fe 04 3e f4 d0 25 be ef f8 e0 3d d3 8c a1 bc
       0.12987874 -0.1619299 0.1098498 -0.01972047
000360 6e f6 f2 bd da e1 f4 3c c5 98 2e be cb dc 00 be
       -0.11863409 0.02989285 -0.17050464 -0.12584226
000370 21 1d 6b bc 17 6a d2 3d 50 c4 1f 3d e3 39 e0 bd
       -0.014350207 0.10274141 0.039005578 -0.10948541
000380 5c 3f 8a 3d 34 76 a5 bd c6 a2 40 be b1 6f 50 3e
       0.06750366 -0.08079186 -0.18812093 0.20355107
000390 26 bf 0a 3d ff c4 7f bc cb 2a fa b9 a6 dd 93 3d
       0.0338737 -0.015610932 -0.000477156 0.072200105
0003a0 6e 59 47 be 3c b2 0c 3e 57 27 cf 3d e3 f9 20 3e
       -0.19467708 0.13739866 0.10114925 0.15720324
0003b0 8f 51 ac bd a6 80 8c 3d 79 cb 14 3c 8a a0 c7 3d
       -0.084139936 0.06860475 0.009081715 0.09747417
0003c0 eb a2 1f 3c 96 03 48 3d 12 61 b0 be 7b e6 23 3e
       0.0097434325 0.048831545 -0.3444906 0.1600589
0003d0 49 1b 88 3d 71 0b a2 bd 60 d0 06 3d b2 ff 35 3d
       0.06645829 -0.079123385 0.032913566 0.044433303
0003e0 22 2c 24 be 87 63 36 be 8d a0 c3 3d 43 60 35 be
       -0.1603246 -0.17811404 0.09552107 -0.17712502
0003f0 9f 28 90 be f7 d1 13 3e 58 d0 3b be 7d 9a 8e 3d
       -0.2815599 0.14435564 -0.18341196 0.0696306

e_conv2.point_conv.bias f4 [32]
000000 5c f2 ce 3d d5 32 03 3e 6e 03 d8 b7 f4 0e 4b ba
       0.1010482 0.1281236 -2.5750804e-05 -0.00077460636
000010 ed d8 30 3e e7 a1 cc a9 02 b0 ba 3d 9c 59 3a 3e
       0.1727025 -9.0875055e-14 0.09115602 0.18198246
000020 b3 d8 65 3e 83 dc 2b bd 6e ba e2 bc 18 ce 8a b5
       0.22445945 -0.041958343 -0.027676787 -1.0341782e-06
000030 bd bc 29 3e 49 80 78 3d 27 7a 99 3d b8 83 38 be
       0.16575904 0.060669217 0.07494002 -0.18018997
000040 5e 62 2e 3e 9c f9 22 3e 9e ac a6 bd 29 c3 92 bd
       0.17029712 0.15915531 -0.08138393 -0.0716613
000050 96 a8 ee 3d 67 f6 02 ba ed 90 a0 bd 17 17 48 bd
       0.11653249 -0.0004995823 -0.078401424 -0.048850145
000060 27 8a dd 3c b3 43 51 3e a8 ab f9 3d 9c e2 6b ad
       0.027043415 0.20435981 0.12190944 -1.3408521e-11
000070 da 6d 18 3e 2a 08 0b a1 d8 b2 3b 3e 58 e9 0a be
       0.14885655 -4.7105837e-19 0.18329942 -0.13565576

e_conv3.depth_conv.weight f4 [32, 1, 3, 3]
000000 e5 8b 62 3d a4 a0 99 bd 0a ee 0d be 3a 7e 40 3e
       0.055309195 -0.07501343 -0.13860336 0.18798152
000010 8d 72 92 be a0 71 df bd 7e f8 90 be 5f a3 83 be
       -0.2860302 -0.10910344 -0.28314584 -0.2571058
000020 d0 e3 27 bc 3f 8a e2 be 90 cd 04 be 43 5a a9 be
       -0.010247186 -0.44246098 -0.12969041 -0.33076677
000030 60 48 f8 bd c0 35 41 bd 37 48 a0 be 5c 96 08 bd
       -0.121231794 -0.0471704 -0.31305096 -0.03334652
000040 6e 34 86 bc bd a5 2e bd b6 77 00 00 98 ae 00 80
       -0.016382422 -0.04263853 4.2944e-41 -6.2632e-41
000050 7b be 00 80 34 b2 00 00 30 8b 00 00 0c 4a 00 80
       -6.8332e-41 6.3927e-41 4.9931e-41 -2.6563e-41
000060 b5 49 00 80 1d 32 01 2b 94 25 00 80 48 62 a0 b8
       -2.6441e-41 4.589955e-13 -1.348e-41 -7.647701e-05
000070 a9 1c 22 b8 f0 bb 66 b8 1c 82 8a b8 fe 85 51 b8
       -3.86505e-05 -5.5011304e-05 -6.6045875e-05 -4.9954273e-05
000080 d8 b3 1e b8 34 f2 90 b8 4c 14 2b b8 a9 f0 85 b8
       -3.7837628e-05 -6.911569e-05 -4.078848e-05 -6.386761e-05
000090 f2 bf 10 be fd 00 06 bd 6d 81 9d 3e 4e dc 1a be
       -0.14135721 -0.032715786 0.30762807 -0.15123102
0000a0 67 b8 d0 3c 80 30 75 3e 21 08 65 3e 51 1d 7a bd
       0.025478555 0.23944283 0.22366382 -0.061063115
0000b0 41 37 62 3e dc be 56 a5 ad cc 6f a4 e5 df fb 23
       0.2209139 -1.8626207e-16 -5.199823e-17 2.7308298e-17
0000c0 d6 d6 5c b3 a5 0b 1d 25 c0 20 33 32 97 4f 0f a5
       -5.1418134e-08 1.3621525e-16 1.0426618e-08 -1.2430239e-16
0000d0 e2 40 ac af d5 ad 86 a4 46 80 64 3e b7 eb 04 3e
       -3.133272e-10 -5.840772e-17 0.22314557 0.12980543
0000e0 57 1d 77 3e a2 8b 60 3d ef 1c a6 3e 5d bb 75 3e
       0.24132286 0.054820664 0.3244395 0.23997255
0000f0 3c d5 4f 3e 47 dd cb bd 5c 3f 5e bd 0e fb c4 be
       0.20296186 -0.09954315 -0.054259643 -0.3847279
000100 2e 3a c1 be 7a 85 5b 3e 8d cc 22 be 69 ba 62 3e
       -0.377397 0.21437636 -0.15898342 0.22141422
000110 6e 47 99 3e f7 87 8d be 13 f9 2c 3e d8 0d a3 3e
       0.2993731 -0.27642795 0.1689189 0.318465
000120 86 67 f5 bd 98 25 98 3d 34 66 9b bd c8 c3 5c 3e
       -0.11982636 0.074290454 -0.07587853 0.2155906
000130 1c 89 e1 3d f3 4a 87 3e 77 44 8c 3e e7 90 39 bd
       0.1101248 0.2642437 0.27395985 -0.045304205
000140 5a 6a 52 3d 9e 16 00 be 90 12 5a 3e b9 df a4 be
       0.051370956 -0.12508628 0.21296144 -0.32201937
000150 b0 78 32 3e 9b 9c f6 bd 0a 02 1d bc 2b 69 fb bc
       0.17428851 -0.12041589 -0.009583006 -0.030689796
000160 82 e5 81 be f0 75 fd bd 56 ea 6a be 48 71 bd be
       -0.25370413 -0.123760104 -0.22940955 -0.3700049
000170 58 06 1a bf 40 6e 2e be f0 40 36 3e c6 25 b3 be
       -0.6016593 -0.17034245 0.17798209 -0.34989756
000180 a0 6f cc be bd 90 4e 3e 5d da c5 bd 30 19 97 35
       -0.39928913 0.20172401 -0.0966079 1.1257707e-06
000190 bf 63 66 2d a1 d5 42 ab ac b5 87 2c 06 51 f4 2b
       1.3096134e-11 -6.9219115e-13 3.8571004e-12 1.7359731e-12
0001a0 9e 16 e0 ac 9f a5 38 34 db 76 b6 ac 04 81 ca 32
       -6.368974e-12 1.7196588e-07 -5.1859467e-12 2.3574565e-08
0001b0 be 3f bb be ad 3f 3f 3d a5 e0 2f 3b 91 0d f5 bd
       -0.3657207 0.046691585 0.002683678 -0.11965478
0001c0 fb 46 54 be c8 90 b2 be f0 80 db be 67 de bb be
       -0.20730202 -0.34876084 -0.4287181 -0.36693117
0001d0 fb 85 ab be 87 2f f2 bd ad 71 c3 bd dc 6e 20 bd
       -0.33500656 -0.11825471 -0.09543166 -0.039168224
0001e0 52 da d1 bd 9a cb ff 3d 1e b0 a9 bb 18 b7 5c be
       -0.102467194 0.12490006 -0.0051784655 -0.2155422
0001f0 9b 18 05 bd 0c 41 e9 3d 51 ac 84 bd 18 eb 0d be
       -0.03249417 0.1138936 -0.06478179 -0.13859212
000200 a3 9b 4e 3e 99 7c 93 be c4 74 f4 bd 08 24 e6 3d
       0.20176558 -0.28805998 -0.11936334 0.11237341
000210 d9 87 60 3e 38 0b 7f be 25 78 fc bd 9b 50 5d 3d
       0.21926822 -0.24906623 -0.12327603 0.05403195
000220 c9 b4 3f 3e dd 86 5b 3d 33 f1 e2 bd 44 16 b6 bd
       0.18721308 0.053595413 -0.11081161 -0.088909656
000230 6e d2 10 3e 33 21 8d 3e fc 64 6c 3e 06 69 31 be
       0.14142773 0.27564391 0.23085397 -0.1732522
000240 0f 45 75 3d 03 36 1b 3e c8 7e 14 be 7b 21 1b be
       0.059880313 0.15157323 -0.14501488 -0.1514949
000250 71 85 cf 3e cf a6 3f 3e 59 65 01 3e c2 33 c4 3e
       0.40531495 0.18715976 0.12636317 0.38320738
000260 2d 10 bd 3e b9 dc 15 3e da c4 b4 3e d9 65 8c 3e
       0.36926404 0.1463498 0.35306436 0.27421454
000270 37 64 6e 3e df e9 a1 3e 40 1b 7d 3d 1d 6f 6d 3e
       0.23280416 0.31623742 0.061793566 0.23186918
000280 d9 34 eb 3e a7 16 4b 3e 26 75 a4 3d 72 57 64 3d
       0.45938757 0.1983286 0.08030157 0.055747457
000290 d9 48 ad 3c 7d 8a 02 3d fc fc 04 3c 00 9d 9d bc
       0.0211529 0.031870354 0.008116957 -0.019239902
0002a0 bb 7a 3b 3d d4 fe 57 3c f3 9a 85 bc 21 25 5f 3d
       0.04577134 0.013183314 -0.016309237 0.05447877
0002b0 3f 48 9a be d5 80 79 be a0 29 67 3e 6b 30 8f 3e
       -0.30133244 -0.24365552 0.22574472 0.27966627
0002c0 a3 94 6f be 93 ae 50 3d b7 bc d8 3c 5f 8b 9c be
       -0.23396544 0.050947737 0.026457174 -0.30575082
0002d0 03 6d 04 3f 02 f9 99 3e 73 7b 2a 3f 53 9d 48 be
       0.5172884 0.3007279 0.6659462 -0.19591264
0002e0 f9 17 3e be 04 1b dd 3e d5 32 76 be 97 0f 76 be
       -0.18563832 0.43184674 -0.24042828 -0.24029385
0002f0 f4 ce 02 3f d5 4f 1c b7 6d 7d af b7 e1 48 f2 37
       0.51097035 -9.316912e-06 -2.0920032e-05 2.8882585e-05
000300 34 6a 0f b9 4d 67 0a b9 28 b7 09 b9 71 56 f8 b8
       -0.00013677106 -0.00013199188 -0.00013133569 -0.000118416625
000310 d0 14 09 b9 15 4d 03 b9 52 0e c2 3e 57 0b 8e 3d
       -0.00013073091 -0.00012521849 0.3790155 0.06935757
000320 1a a9 99 3e d7 46 73 3e 66 06 49 3e dc d3 23 3e
       0.30011827 0.23757492 0.19631347 0.15998787
000330 02 54 b2 3e 31 9d 38 be 3b 8d b1 3d 9d bc c6 bd
       0.34829718 -0.18028714 0.08669516 -0.09703944
000340 a6 d4 e6 be 0e 0f dc be 09 21 20 be 55 91 98 be
       -0.45084113 -0.42980236 -0.15637602 -0.2979838
000350 80 a9 e5 be 3c 7d 71 3e 76 9f de bd ed 03 a6 be
       -0.4485588 0.2358293 -0.108702585 -0.3242487
000360 26 57 82 3e 16 a3 17 3e 41 d2 a5 bd b2 b6 f5 bd
       0.25457114 0.14808306 -0.080967434 -0.11997737
000370 85 9d 13 bd 6e 6a 65 bc a8 d8 a8 bc 86 4a 44 3e
       -0.036038894 -0.014002426 -0.020611122 0.19169053
000380 a9 8f 76 bd 58 2a f6 3e 4b 4f ea bd 13 b2 3c 3d
       -0.0601956 0.4807918 -0.11440905 0.046068262
000390 7c b6 3d 3e 74 a8 5d 3e 18 4d 6e 3d 0f 57 37 be
       0.18526644 0.21646291 0.05817899 -0.17904304
0003a0 ef d4 5b 3d d5 56 2e bd c7 e0 b3 3e 2b 88 23 3e
       0.053669866 -0.04256328 0.3513243 0.15969913
0003b0 d1 92 14 3e 71 9c a3 3e 16 16 cb bd 5e 17 e3 3d
       0.14509131 0.31955293 -0.09916322 0.11088441
0003c0 9f 08 db bd 80 17 76 3d d3 c3 19 3e 39 ef f2 b3
       -0.10695004 0.060081005 0.15016107 -1.13125175e-07
0003d0 a4 5d 58 b4 02 5f 28 ac 8b 55 3b ab 9b 95 ca 24
       -2.0150634e-07 -2.3926976e-12 -6.655446e-13 8.785698e-17
0003e0 b2 6c fe af d3 41 0b af 2a 8a bc a2 58 42 17 a3
       -4.6279564e-10 -1.2665362e-10 -5.110379e-18 -8.199775e-18
0003f0 5b 28 6c 3e 3a 4f 74 3e 85 25 cb 3c 78 c7 3a 3e
       0.2306227 0.23858348 0.024798164 0.18240154

e_conv3.depth_conv.bias f4 [32]
000000 72 6f 9b 3e f8 64 c9 3d e5 f2 79 be dd a7 2f 3d
       0.30358464 0.098337114 -0.24409063 0.042884696
000010 4c 33 92 3e 56 a0 c7 3d 5a 9b 25 bd 0f 8f be bd
       0.2855476 0.097473785 -0.040431358 -0.0930463
000020 1d 9c b4 bd ee 06 2c be c7 cc 9d be 3a 52 99 3d
       -0.08818839 -0.16799518 -0.30820295 0.074863866
000030 c3 0f 1f 3e 1f 2c 98 be a5 ec 8c be 0d 19 9f be
       0.15533356 -0.29721162 -0.27524295 -0.310738
000040 12 31 a7 3d e3 ff d5 3d 59 c3 31 3e 76 52 61 bd
       0.08163656 0.10449197 0.17359675 -0.05501028
000050 b9 ad 09 be 5e 54 d3 bd a6 f0 8e 3d 28 d1 a1 3e
       -0.13445176 -0.10318826 0.06979494 0.31604886
000060 e7 1a 33 3e 0c 07 6d 3e 0e 04 82 3e e8 0c a5 3e
       0.17490731 0.2314722 0.25393718 0.3223641
000070 2f 2d 9f 3e af 42 86 3e cd 94 84 3e 08 ba 7b 3d
       0.3108916 0.2622275 0.25894776 0.06145671

e_conv3.point_conv.weight f4 [32, 32, 1, 1]
000000 63 52 c1 b2 d0 31 70 3a aa a7 2a 3a bb 16 00 b3
       -2.2505622e-08 0.0009162696 0.0006509969 -2.9822996e-08
000010 d4 73 db ba 17 44 28 b8 df 81 37 b9 6b ca ba 37
       -0.0016742893 -4.0117735e-05 -0.00017500621 2.2267186e-05
000020 41 a1 ab ba bc 24 98 3a ef ff 16 3b f1 ed 24 b7
       -0.0013094322 0.0011607627 0.0023040732 -9.830562e-06
000030 2c 36 c6 3a 5d 1d ac 3a 59 98 86 3a ee ad 1c 3a
       0.0015122346 0.001313131 0.0010268792 0.0005976845
000040 f3 06 82 ba 8a 25 ea ba 71 bd a5 b9 23 2a 29 39
       -0.0009920284 -0.0017863971 -0.00031612397 0.00016132793
000050 ac 4e 13 39 4e 76 57 38 46 5c ce ba c1 59 69 ba
       0.0001404832 5.1370174e-05 -0.0015744052 -0.0008901619
000060 1b b4 ef b9 48 f9 b7 ba dc 26 ad ba d3 75 81 ba
       -0.0004571982 -0.0014036084 -0.0013210434 -0.0009877033
000070 32 82 0e bb 6c e8 45 ba 86 5b 4e b8 cb 36 db 3a
       -0.0021745083 -0.0007549587 -4.9199465e-05 0.0016724704
000080 5e 3e 00 00 0f 2f 00 80 79 bd 00 00 96 73 00 00
       2.2373e-41 -1.6881e-41 6.797e-41 4.1464e-41
000090 3b 21 00 00 d0 06 00 80 9d a4 00 80 3d a5 00 00
       1.1921e-41 -2.444e-42 -5.9052e-41 5.9276e-41
0000a0 3e bb 00 00 62 a5 00 80 83 ba 00 80 dc 18 00 00
       6.717e-41 -5.9328e-41 -6.6908e-41 8.918e-42
0000b0 3f 53 00 80 1a ba 00 00 95 7b 00 80 cc 82 00 80
       -2.9863e-41 6.676e-41 -4.4333e-41 -4.6921e-41
0000c0 90 26 00 80 86 9a 0c 00 56 b9 00 00 61 66 00 00
       -1.3834e-41 1.157459e-39 6.6486e-41 3.6727e-41
0000d0 c2 5e 00 80 43 91 00 00 a6 44 00 00 6a 0d 00 00
       -3.3993e-41 5.211e-41 2.4626e-41 4.812e-42
0000e0 1e b9 00 00 68 45 00 00 f0 7a 00 80 d4 58 00 80
       6.6408e-41 2.4898e-41 -4.4102e-41 -3.1866e-41
0000f0 f7 00 00 80 43 00 00 80 6d a1 00 00 14 20 00 80
       -3.46e-43 -9.4e-44 5.7909e-41 -1.1507e-41
000100 6d 6b 31 3d da 54 d9 3e 73 f6 f2 bb bd f2 a1 3c
       0.04331534 0.4244755 -0.007414633 0.019769067
000110 d9 e0 9c bd 8a a9 60 3d 38 03 1d 3e d6 55 94 3d
       -0.07660074 0.054849185 0.15333259 0.072429344
000120 39 71 88 bd 73 06 2c 3c 4f e7 25 3e 95 00 0a 3e
       -0.066622205 0.0104995845 0.16201518 0.13476785
000130 52 3c a6 3e ea d0 5b 3d db 5f ac bd 5e b9 44 3c
       0.32467896 0.053666033 -0.084167205 0.012007086
000140 3e ef 9c 3d 6c 02 39 3e 26 26 53 3d 3a bc 9f 3d
       0.07662819 0.1806733 0.051550053 0.07799573
000150 e1 4f f8 bd d8 0f 8f bd 36 69 44 3d 16 e2 89 bd
       -0.12124611 -0.06985444 0.0479519 -0.067325756
000160 c7 e9 a3 3d ff 05 51 bd 26 9f 4f 3e 00 c6 a1 3d
       0.08003574 -0.05103111 0.20275554 0.07899094
000170 8b 25 cf 3c ae 4d c0 3d 48 c5 84 3c b4 b5 d9 3e
       0.025286457 0.09389816 0.016207352 0.4252144
000180 65 2d 82 3d 5c ec 0d be 7a 19 02 3d f7 93 b8 bc
       0.063563146 -0.13859695 0.031762578 -0.022531493
000190 bf 61 80 3d d1 1e ad bc f4 c0 51 bd 83 df 1b bf
       0.062686436 -0.021132858 -0.051209405 -0.60887927
0001a0 2d 40 a7 bd d2 0f e4 bd ea 17 ad bd 68 63 16 bc
       -0.081665374 -0.1113583 -0.08451827 -0.009178974
0001b0 68 71 db 3d fe 14 0f be 5b c7 d9 3d f5 68 b2 3d
       0.1071499 -0.13972852 0.10633727 0.08711425
0001c0 2a b4 b3 bd 5c 31 2c bd fc 7e 3e ba 45 98 fe bb
       -0.08774598 -0.04203926 -0.0007266847 -0.007769617
0001d0 39 27 b2 3e 55 45 7c 3c a6 5e c6 bd 71 38 6e be
       0.3479555 0.015397389 -0.096860215 -0.23263718
0001e0 70 2a cb bd c0 11 9c 3d bf 5b f0 3b 1f 3c b2 bc
       -0.09920204 0.07620573 0.0073351557 -0.021757184
0001f0 66 29 9c 3c 0a 8d 52 bc 94 98 b9 3e fe dd c7 be
       0.019062709 -0.012851009 0.3624922 -0.39036554
000200 86 5f 00 00 5d c8 00 80 65 34 00 00 83 2b 00 00
       3.4267e-41 -7.1877e-41 1.8796e-41 1.5609e-41
000210 58 52 00 00 30 96 00 00 39 1b 00 00 33 8d 00 80
       2.954e-41 5.3877e-41 9.766e-42 -5.0653e-41
000220 14 ce 00 80 50 06 00 00 9e 41 00 80 ef cf 00 00
       -7.3927e-41 2.264e-42 -2.3539e-41 7.4593e-41
000230 e3 d5 00 80 68 b3 00 00 50 c3 00 00 ec b5 00 80
       -7.6728e-41 6.4359e-41 7.0065e-41 -6.5261e-41
000240 55 02 00 80 26 95 00 80 bf 44 00 00 16 bf 00 80
       -8.37e-43 -5.3504e-41 2.4661e-41 -6.8549e-41
000250 b0 c0 00 80 14 be 00 80 c5 c4 00 80 30 a6 00 00
       -6.9123e-41 -6.8187e-41 -7.0588e-41 5.9617e-41
000260 bb 4f 00 80 d5 0a 00 00 e3 15 00 80 ee 45 00 00
       -2.8602e-41 3.886e-42 -7.851e-42 2.5086e-41
000270 aa 1e 00 00 a8 b0 00 80 24 1a 00 00 99 90 00 80
       1.1e-41 -6.3372e-41 9.377e-42 -5.1872e-41
000280 de 77 b8 bd f3 22 01 3e 59 c8 41 be 8e f6 5f 3d
       -0.09007238 0.12610988 -0.18924083 0.054678492
000290 e1 eb 70 bd 20 a3 f0 3b 99 de fd bd 36 66 2d be
       -0.0588187 0.0073436648 -0.12395973 -0.16933522
0002a0 b8 64 3c 3e ec dd b1 bc a7 bb ce bd ab 4e 09 bd
       0.18397796 -0.021712266 -0.100943856 -0.03352229
0002b0 d6 77 8a be 6a cc 0d be 99 b1 15 3d 38 18 c3 bd
       -0.27044553 -0.13847509 0.036546323 -0.09526104
0002c0 b1 b6 c7 bd 10 d0 9c bd b3 f3 86 bd 5e bb 21 be
       -0.097516425 -0.07656872 -0.06589451 -0.15794131
0002d0 cd f5 fd 3d b1 bd 03 be d3 3e 29 3e 2d 2a b4 bd
       0.124003984 -0.1286533 0.16527872 -0.08797107
0002e0 58 39 c7 3d 8f 42 1c 3e 65 22 89 3d be 93 fc 3c
       0.09727734 0.15259765 0.06696013 0.030832168
0002f0 57 90 00 be 4f d9 10 3e d3 8b 36 3e 77 bc 8e bd
       -0.12555061 0.14145397 0.17826776 -0.069695406
000300 e5 9f 30 3e 16 fb 90 be 02 da 9d bd a2 9f 94 3d
       0.17248495 -0.28316563 -0.07707597 0.0725701
000310 17 1f 96 3c dd e1 d2 3d 74 13 99 bd fa 26 1e 3e
       0.018325372 0.10296986 -0.074744135 0.15444556
000320 0f 49 e3 bc 16 d6 cc bd db 49 45 be 0a f3 7e 3c
       -0.027744798 -0.10001771 -0.19266455 0.015560875
000330 5b ee de bd ca a8 f3 bd a8 b5 d2 bd 8e 97 1c be
       -0.108853064 -0.11897428 -0.102885544 -0.15292189
000340 54 65 0f 3e 56 6b f7 3d 91 c9 2c 3d 19 03 1c be
       0.14003497 0.120810196 0.042184416 -0.15235557
000350 a2 fc 8b 3e 7b 0b 26 be 82 7a 36 3d 3d 49 05 3e
       0.2734118 -0.16215317 0.044550426 0.1301622
000360 e2 0c 66 bc 0e 02 fd 3d c1 7e 6b bd 34 0a 62 3e
       -0.014041157 0.123539075 -0.05749393 0.22074205
000370 33 2f d2 3d ed 1b 77 bd 3f 38 d1 3e 8e a3 61 be
       0.10262909 -0.060329366 0.40863225 -0.22035047
000380 65 d3 15 1d 43 54 e1 2b 79 f9 11 32 a3 b0 da 9e
       1.9829274e-21 1.6010599e-12 8.496834e-09 -2.3154703e-20
000390 b5 80 4f b7 95 9c 05 a0 15 30 0f ab 26 2c a9 9f
       -1.2368128e-05 -1.1317347e-19 -5.0870533e-13 -7.164732e-20
0003a0 f3 1d 0a b5 2f 72 d7 34 1a 60 5b 38 d9 75 d5 9f
       -5.145259e-07 4.012995e-07 5.230317e-05 -9.040397e-20
0003b0 ab c5 2b 33 54 c3 35 36 79 ec 72 34 b7 44 73 30
       3.9993818e-08 2.7084798e-06 2.2624035e-07 8.8500535e-10
0003c0 2b 58 c7 b5 b2 98 a7 b8 5d 9a ae ac 29 37 f4 20
       -1.4852316e-06 -7.991622e-05 -4.962515e-12 4.137171e-19
0003d0 db 11 50 a4 46 35 ee 1f a0 6b 29 b6 cc 81 9c b3
       -4.5117935e-17 1.00885054e-19 -2.5245608e-06 -7.287926e-08
0003e0 43 1b 0c ae 68 3b 69 b6 30 b3 50 b7 ca ef 99 b4
       -3.1856528e-11 -3.4754285e-06 -1.2439486e-05 -2.867294e-07
0003f0 1e 70 b9 b8 fe 75 a5 b2 b3 8b e2 1f 9d a3 32 35
       -8.842371e-05 -1.9262185e-08 9.5945836e-20 6.6548256e-07

e_conv3.point_conv.bias f4 [32]
000000 bb 92 19 bb 2b ff 6f 94 fd e9 ec 3c 61 36 d3 bb
       -0.0023433405 -1.21167394e-26 0.028920168 -0.0064456915
000010 a0 bf 1d a4 e4 9c 1b bd 28 3c 99 3d c2 c9 3c b9
       -3.420626e-17 -0.03799142 0.07482177 -0.00018004238
000020 09 61 4c 3e 57 63 10 3b f1 27 da bd 83 b3 0d b9
       0.19958891 0.0022031867 -0.106521495 -0.00013513681
000030 5c 26 f9 b1 d2 71 30 3e f8 6b ed bc 52 45 d3 3a
       -7.2512147e-09 0.17230919 -0.028982148 0.0016118682
000040 fc 76 9e ba 03 b1 3e bc bb a5 46 bc 48 a0 26 3e
       -0.0012089903 -0.011638883 -0.012124474 0.1627208
000050 ea 1a 20 3e ac a6 a8 bb cb 91 e1 3d 0d 04 05 3d
       0.15635267 -0.005146822 0.11014136 0.032474566
000060 ec 32 49 bd 47 a0 10 3e 50 f4 04 3e 17 93 a2 bd
       -0.04912083 0.14123641 0.12983823 -0.079382114
000070 7d 33 33 3e 7c 2a 9f 3d 5a 61 b8 a8 54 3c 28 3e
       0.1750011 0.07771775 -2.0470323e-14 0.16429263

e_conv4.depth_conv.weight f4 [32, 1, 3, 3]
000000 ea 0c f6 39 a2 69 c3 39 c3 1d ec 39 01 29 04 3a
       0.00046930398 0.00037272 0.00045035602 0.00050415104
000010 94 82 f3 39 e9 d2 e6 39 fb 7b b0 39 f9 b9 87 39
       0.0004644586 0.0004402616 0.0003366171 0.00025887767
000020 a6 bf 98 39 ce 62 00 00 f9 72 00 80 42 05 1f a3
       0.00029134488 3.5444e-41 -4.1244e-41 -8.620521e-18
000030 1e 97 00 80 58 ea 00 80 59 c7 3a 25 42 3a 01 80
       -5.421e-41 -8.4067e-41 1.620047e-16 -1.12734e-40
000040 2a 45 00 00 60 65 00 00 6e 28 a2 3e c4 41 0f 3e
       2.4811e-41 3.6366e-41 0.3167147 0.13989931
000050 82 f1 cc 3e fa 64 08 3e d8 a5 d7 bc 9d 6b 98 3e
       0.40028006 0.1331977 -0.026324198 0.29769602
000060 67 c6 8c 3e ec 66 f9 3d a1 9d 46 3e 87 eb 9a 3e
       0.2749512 0.12177834 0.19396068 0.30257818
000070 01 71 e6 3d 95 34 eb be 4c 8e e2 3e af e3 ac 3e
       0.112520225 -0.45938554 0.4424919 0.3376746
000080 2c 27 82 be 60 b6 7c 3e 9c 7c 66 3e f7 ed dc be
       -0.2542051 0.24678946 0.22508472 -0.43150303
000090 4d 56 01 00 d6 69 00 00 58 54 00 00 ce 64 00 00
       1.22794e-40 3.7967e-41 3.0257e-41 3.6162e-41
0000a0 bf c6 00 80 b7 c5 00 80 b9 a2 70 12 b3 62 00 80
       -7.1297e-41 -7.0927e-41 7.593122e-28 -3.5407e-41
0000b0 b7 6d 00 80 76 9a 74 3e 68 53 5e 3e df a3 da 3e
       -3.9358e-41 0.23887047 0.21711504 0.4270315
0000c0 7b fb 2d bd 59 0e 9a 3c 31 59 62 3e b5 b8 a5 3e
       -0.04247616 0.01880567 0.22104336 0.32367483
0000d0 96 e0 93 3e f7 ae 21 3e ae 24 09 3f 73 28 73 3e
       0.28882283 0.157894 0.53571594 0.23745899
0000e0 79 2e 9c 3e 34 27 7c 3e 80 26 b4 bd c4 9d 01 3e
       0.30504206 0.2462433 -0.08796406 0.12657839
0000f0 d8 6a 7d 3d 63 e5 c1 bd 17 dc 33 3e da 60 a3 b5
       0.061869472 -0.0946758 0.17564426 -1.2172634e-06
000100 28 0f 30 b6 0f 77 30 b5 68 38 15 b4 26 78 71 b4
       -2.6234866e-06 -6.573836e-07 -1.3897227e-07 -2.2488584e-07
000110 dc 19 b1 b5 c8 32 44 b5 3c 45 c1 b4 40 bc 9d b4
       -1.3195054e-06 -7.3089586e-07 -3.5999426e-07 -2.93805e-07
000120 3c 51 89 be ff e0 78 bd db d0 da 3e 7e 31 ec 3d
       -0.2681979 -0.060761448 0.4273747 0.115328774
000130 44 36 98 be 71 48 86 bd 13 fd e3 bb e3 ec c0 3e
       -0.297289 -0.06556786 -0.006957659 0.3768073
000140 d0 6c e2 3e fb 5f c3 3b ba 21 d6 3b 16 6d ad 3b
       0.44223642 0.0059623695 0.0065347822 0.005292545
000150 cf 90 a0 3b a5 f1 c0 3b be b3 91 3b 2d 61 2e 3b
       0.004900075 0.0058881813 0.0044464758 0.0026608214
000160 52 72 8e 3b 7c f2 38 3b e9 ca 32 3f cb 4c 12 3f
       0.004347124 0.0028220704 0.69840866 0.57148427
000170 1c 69 02 3f 13 49 82 3e e3 fb 41 bd b8 36 ff bb
       0.50941634 0.25446376 -0.04735936 -0.0077885054
000180 0d 3b 8e be b2 37 a3 be 40 36 a0 be 1a 09 84 35
       -0.27779427 -0.3187843 -0.3129139 9.837415e-07
000190 1d d9 90 35 80 31 55 36 b8 83 7f 35 2d cc 9a 35
       1.0792024e-06 3.1768286e-06 9.518658e-07 1.1533317e-06
0001a0 12 eb d5 35 95 a3 75 35 df a3 93 35 eb 91 a3 35
       1.5938151e-06 9.1507655e-07 1.1000046e-06 1.2186914e-06
0001b0 c4 b6 e9 b1 07 b6 2e 1c 2b 28 2e 9c f5 22 13 9c
       -6.8019705e-09 5.7807035e-22 -5.7623687e-22 -4.86834e-22
0001c0 c1 0d 4b af 65 23 2f 9c 5d 41 2b 1c 9b 0c 75 a9
       -1.8467629e-10 -5.794839e-22 5.6663634e-22 -5.4411862e-14
0001d0 0d 57 93 9b 5a 9d 99 3e bc 6a 68 3e 18 04 87 3e
       -2.4375365e-22 0.30002862 0.22696966 0.2637031
0001e0 b3 65 28 3e 67 cb 35 be 67 e5 a2 3d d9 de 02 3f
       0.16445045 -0.17753373 0.07953911 0.5112129
0001f0 c6 ef a3 bd 00 b0 fa 3e 04 c0 9e 3e dd 34 1f 3e
       -0.080047175 0.48962402 0.3100587 0.1554751
000200 32 ac 36 3e 45 3c 12 3e e4 1a d0 3d 9c 11 0e 3e
       0.17839125 0.14280804 0.10161379 0.13873905
000210 8c db b4 3e 9f 99 b5 3d e2 0c 8f 3e e3 3c e6 bd
       0.3532375 0.088671915 0.27939516 -0.11242082
000220 a4 66 80 bd 67 45 88 bd e8 d7 b3 bd c7 da 91 39
       -0.06269577 -0.066538624 -0.08781415 0.00027819557
000230 ca cb f5 bd 45 eb 5b bc 2e 77 3a bc bb 25 d2 3b
       -0.1200176 -0.013422792 -0.011380954 0.006413189
000240 77 49 82 ba de 49 3a ba 55 96 95 ba 3d 34 3c ba
       -0.0009940107 -0.0007106344 -0.00114126 -0.0007179415
000250 bb 47 43 ba ef 3c 46 ba 5e 99 9a ba a5 a6 44 ba
       -0.00074493483 -0.00075621804 -0.0011794975 -0.00075016386
000260 e0 c2 59 ba af fd 73 be dc e7 18 3d 6e 54 dc 3d
       -0.00083069317 -0.23827241 0.037330493 0.10758291
000270 9d 27 d1 bd 33 79 09 3e 69 e4 b5 3e e5 85 90 3e
       -0.10212634 0.1342514 0.35525826 0.28227153
000280 06 d6 8c 3e 3c 06 0a 3f 66 ee b8 be 3b b4 dd be
       0.27507037 0.5391576 -0.36119384 -0.43301567
000290 2e 08 ed be 85 01 80 be 94 fb 9e bc 94 a8 a4 be
       -0.46295303 -0.2500116 -0.019407071 -0.32159865
0002a0 c8 80 08 be 65 99 02 be a1 04 3b 3d 1c 33 76 be
       -0.13330376 -0.12753828 0.04565871 -0.24042934
0002b0 2a 06 83 3e 07 65 38 be 89 ee 71 be c9 95 ae 3d
       0.2559064 -0.18007289 -0.2362615 0.08524663
0002c0 df 54 5b be 0d ad b2 be 5c d7 8f be 35 3c 36 3d
       -0.21419095 -0.34897652 -0.28093994 0.04449101
0002d0 3d b4 8e 3e 86 7b 24 be 65 3a 8a 3e ee 27 fa bd
       0.27871886 -0.16062745 0.26997676 -0.12214647
0002e0 8a ef 37 bc 79 19 de bc 71 84 31 bd a4 c6 86 3e
       -0.011226544 -0.027111756 -0.043339197 0.26323426
0002f0 f6 05 c6 bd 5a 89 02 3e 95 ef 39 bd 0d b7 c4 bd
       -0.09669106 0.12747708 -0.0453945 -0.09605227
000300 22 e3 20 bc 53 be 36 3d 73 de 87 bd 89 fd 14 3e
       -0.009819778 0.0446151 -0.06634226 0.14549841
000310 3a 92 5c 3e d8 cd af bd 68 8b 19 3e e0 83 5d 3e
       0.21540156 -0.085841835 0.14994586 0.21632338
000320 d9 76 0a 3d 46 fa e5 3c 0e 9e 36 be d7 62 e0 3d
       0.03380475 0.028073441 -0.1783373 0.10956352
000330 97 ea 0c 3e 32 79 e1 3d 2e 32 22 be 47 30 07 bf
       0.13761364 0.11009444 -0.15839455 -0.5280804
000340 bf 3f 85 be 0c 82 49 be 7b 92 3c be 1e 4d 44 be
       -0.26025197 -0.19678515 -0.18415253 -0.19170043
000350 3b 64 a4 be 9b 30 83 be f8 15 bc be 4a 89 01 bf
       -0.3210772 -0.2562302 -0.3673551 -0.5060011
000360 73 30 24 3f ee 9c c8 3e db 6a e4 3e 45 ee c1 3e
       0.6413643 0.39182228 0.44612774 0.37877098
000370 05 da 42 3e f7 1a d4 3e fa 1c 5c 3e e3 51 9c 3e
       0.1902848 0.41426823 0.21495429 0.30531225
000380 33 cd b4 3e dc 7d d7 bd eb 4d 03 be 9b d3 ad 3e
       0.35312805 -0.10522053 -0.12822692 0.33950505
000390 50 f8 ff bd 2d 72 3c bd 7b a2 b3 3e ea a3 ba 3e
       -0.12498534 -0.046007324 0.350849 0.36453182
0003a0 f7 7f 4c 3e bb e0 93 bc a0 4c de 3d b3 70 d4 3d
       0.1997069 -0.018051496 0.10854459 0.10373058
0003b0 92 17 bf bd a2 86 82 3e 02 83 25 3e d6 e1 14 3e
       -0.093306676 0.25493342 0.16163257 0.14539275
0003c0 e3 7c 53 3e cd 4e 9f 3e 18 d7 f9 3d 7e 2b 58 be
       0.20653109 0.31114808 0.12199229 -0.21110341
0003d0 5e fd 3d be 90 83 0a be ff 7f 7d be 52 65 36 be
       -0.18553683 -0.1352675 -0.24755858 -0.17812088
0003e0 89 01 de bd 46 9a 8e be 60 83 40 be db c5 e0 bd
       -0.108401366 -0.27852076 -0.18800116 -0.10975238
0003f0 d9 ef 48 be 8a ac b9 bd de 36 f3 be 6c fb b4 be
       -0.19622745 -0.09066112 -0.47502798 -0.3534807

e_conv4.depth_conv.bias f4 [32]
000000 ba ce d7 bd d4 7f 96 3d 74 e1 eb 3d 82 e3 4a 3c
       -0.10537477 0.073486 0.11517611 0.012383344
000010 18 ff 8f bd 65 b6 a6 3d 2c 8b dd 3b ce ff 53 be
       -0.07031077 0.08140258 0.0067609753 -0.2070305
000020 bd 17 0a be 73 95 1b be ad b5 9c be a7 74 b7 bd
       -0.13485618 -0.15193729 -0.30607358 -0.089577965
000030 70 ac 93 be f6 e2 f6 3d eb 72 30 3e cd 1b 1d 3e
       -0.28842497 0.12055008 0.17231338 0.15342636
000040 d0 1a 25 be 93 42 91 be 2f 7a b9 bd da 7d 45 3e
       -0.1612351 -0.28371105 -0.09056508 0.1928629
000050 37 10 73 3e 45 d4 9d 3e 09 7b 81 3e bf df a0 bd
       0.23736654 0.3082601 0.2528918 -0.07855176
000060 4e ab 71 3e 6a d6 8a 3e 62 f3 8b be de 75 12 3e
       0.23600504 0.2711671 -0.27334124 0.14302775
000070 f4 1b 29 be 1a 71 8b 3e 39 be 41 3e 38 bc cb bc
       -0.1651457 0.27234727 0.1892022 -0.024870023
